…
pose=12.0, kobj=1.0, label_smoothing=0.0, nbs=64, hsv_h=0.015, hsv_s=0.7, hsv_v=\n0.4, degrees=0.0, translate=0.1, scale=0.5, shear=0.0, perspective=0.0, flipud=0.0, fliplr=0.5, bgr=0.0, mosaic=1.0, mixup=0.0, copy_p\naste=0.0, copy_paste_mode=flip, auto_augment=randaugment, erasing=0.4, crop_fraction=1.0, cfg=None, tracker=botsort.yaml, save_dir=run\ns_military_yolo\\yolov8n_military_fast7\nOverriding model.yaml nc=80 with nc=12\n                   from  n    params  module                                       arguments                     \n  0                  -1  1       464  ultralytics.nn.modules.conv.Conv             [3, 16, 3, 2]                 \n  1                  -1  1      4672  ultralytics.nn.modules.conv.Conv             [16, 32, 3, 2]                \n  2                  -1  1      7360  ultralytics.nn.modules.block.C2f             [32, 32, 1, True]             \n  3                  -1  1     18560  ultralytics.nn.modules.conv.Conv             [32, 64, 3, 2]                \n  4                  -1  2     49664  ultralytics.nn.modules.block.C2f             [64, 64, 2, True]             \n  5                  -1  1     73984  ultralytics.nn.modules.conv.Conv             [64, 128, 3, 2]               \n  6                  -1  2    197632  ultralytics.nn.modules.block.C2f             [128, 128, 2, True]           \n  7                  -1  1    295424  ultralytics.nn.modules.conv.Conv             [128, 256, 3, 2]              \n  8                  -1  1    460288  ultralytics.nn.modules.block.C2f             [256, 256, 1, True]           \n  9                  -1  1    164608  ultralytics.nn.modules.block.SPPF            [256, 256, 5]                 \n10                  -1  1         0  torch.nn.modules.upsampling.Upsample         [None, 2, 'nearest']          \n11             [-1, 6]  1         0  ultralytics.nn.modules.conv.Concat           [1]                           \n12                  -1  1    148224  ultralytics.nn.modules.block.C2f             [384, 128, 1]                 \n13                  -1  1         0  torch.nn.modules.upsampling.Upsample         [None, 2, 'nearest']          \n14             [-1, 4]  1         0  ultralytics.nn.modules.conv.Concat           [1]                           \n15                  -1  1     37248  ultralytics.nn.modules.block.C2f             [192, 64, 1]                  \n16                  -1  1     36992  ultralytics.nn.modules.conv.Conv             [64, 64, 3, 2]                \n17            [-1, 12]  1         0  ultralytics.nn.modules.conv.Concat           [1]                           \n18                  -1  1    123648  ultralytics.nn.modules.block.C2f             [192, 128, 1]                 \n19                  -1  1    147712  ultralytics.nn.modules.conv.Conv             [128, 128, 3, 2]              \n20             [-1, 9]  1         0  ultralytics.nn.modules.conv.Concat           [1]                           \n21                  -1  1    493056  ultralytics.nn.modules.block.C2f             [384, 256, 1]                 \n22        [15, 18, 21]  1    753652  ultralytics.nn.modules.head.Detect           [12, [64, 128, 256]]          \nModel summary: 225 layers, 3,013,188 parameters, 3,013,172 gradients, 8.2 GFLOPs\nTransferred 319/355 items from pretrained weights\nFreezing layer 'model.22.dfl.conv.weight'\nAMP: running Automatic Mixed Precision (AMP) checks...\nAMP: checks passed \nAutoBatch: Computing optimal batch size for imgsz=640 at 60.0% CUDA memory utilization.\nAutoBatch: CUDA:0 (NVIDIA G
…
